conv2d.onnx (onnx, 630 bytes, 2 tensors)

bias f4 [2]
0	0x3e2388c9	0.15970148
1	0xbd1ed2e8	-0.038775355

weight f4 [2, 3, 3, 3]
0	0xbe39a5a7	-0.18129598
1	0xbd1aa974	-0.03775926
2	0xbdbd4f18	-0.092436016
3	0xbd523f2c	-0.051329777
4	0xbe2e1723	-0.17001013
5	0x3d9e29d2	0.0772282
6	0xbe30a751	-0.17251326
7	0xbc48eba0	-0.012263209
8	0x3d8901d2	0.066898
9	0xbd84daba	-0.06487031
10	0x3ddfa3de	0.10919927
11	0x3cc6d840	0.024273038
12	0x3dd8a86e	0.105790004
13	0x3dfce17e	0.12347697
14	0xbdadfdac	-0.0849565
15	0x3d8f3d0a	0.06994064
16	0xbdaa8614	-0.083263546
17	0x3d7717f4	0.060325578
18	0xbdcdeeb2	-0.10055293
19	0x3db650e2	0.08902146
20	0x3d1f9528	0.038960606
21	0xbd9a3e3c	-0.075314015
22	0xbdc152a8	-0.094395936
23	0x3d4bf214	0.04979141
24	0x3e37dea1	0.1795602
25	0x3dbd2566	0.09235649
26	0xbc983d08	-0.01858379
27	0xbc190be0	-0.00934121
28	0x3de00602	0.10938646
29	0xbe08f6e1	-0.13375427
30	0x3d8307da	0.06397982
31	0xbd82995e	-0.06376909
32	0x3de40a62	0.11134793
33	0xbd8c98d9	-0.06865091
34	0x3c1be9c0	0.00951618
35	0x3d8517ce	0.06498681
36	0x3e076e79	0.13225736
37	0xbce7ba10	-0.028286964
38	0x3e33c8c9	0.17557062
39	0xbe26bab8	-0.16282165
40	0xbd0c9c78	-0.034328908
41	0xbe448328	-0.19190657
42	0x3c8299f8	0.015942559
43	0x3d5fb270	0.05461353
44	0xbd9f8cb5	-0.077905096
45	0x3da3b1d2	0.07992901
46	0xbcff92b8	-0.03119789
47	0xbe2b401e	-0.16723678
48	0x3e174bd9	0.14775027
49	0x3df302ca	0.11865766
50	0x3dc74772	0.09730424
51	0x3e1d31c3	0.15351014
52	0x3d90eeae	0.070767745
53	0x3dd18f22	0.102323785
